neural-network-1.pth (torch, 66851 bytes, 18 tensors)

weight f4 [64, 8]
000000 52 30 39 bf d3 b7 69 be b9 a8 1d bf 48 a9 e8 3d
       -0.72339356 -0.2282403 -0.61585575 0.11360413
000010 8e 4c 43 bf cb 7d b5 bf 4c 22 bd 3d c6 14 a1 be
       -0.7628869 -1.4179014 0.09235057 -0.3146116
000020 b2 fe 9c 3f 3c 23 bc 3e 8d 55 d4 3e 0d a2 2d 40
       1.2265227 0.36745632 0.4147152 2.7130158
000030 c9 e6 14 bd 61 45 39 3f 7d 03 cd be 2f 0c 09 bf
       -0.036352906 0.7237149 -0.40041724 -0.53534216
000040 0b 35 0f c0 61 36 68 3f 17 4b 96 3e d2 14 b6 3f
       -2.2376125 0.90707976 0.29354164 1.4225104
000050 58 aa d9 3e 6f 18 2e bf c0 d5 4e bf 14 eb 1e 3f
       0.42512774 -0.6800603 -0.80794907 0.6207745
000060 79 88 0e 3f fc 19 d1 3e 5c 71 05 3f f1 8b 15 3f
       0.5567699 0.40840137 0.521261 0.5841666
000070 8a 18 95 3e a6 5f 21 bf 6b b9 8e bf c4 a4 3b bf
       0.29120284 -0.6303657 -1.1150335 -0.7329829
000080 df aa ba 3f c2 b1 87 3f 32 bb 60 3f 6a 8a b0 3e
       1.4583396 1.0601122 0.8778564 0.34480602
000090 23 3f 54 3f 1c 3d d1 3e 2e 9e 9d 3d 3e d3 d6 3e
       0.8290884 0.40866935 0.07696186 0.4195804
0000a0 b6 d8 c2 bf 89 48 8f bf 8b 97 0f 3f ca 03 0b 40
       -1.5222385 -1.1194011 0.5609061 2.1721063
0000b0 fa ed 2b be 9d 3d f7 3e e1 39 56 3f e7 a8 94 3d
       -0.1679 0.48289195 0.83682066 0.07258778
0000c0 06 11 a5 3e da 0b ef 3e 2d 89 4b 3f dd 9a 83 be
       0.3223955 0.4668873 0.7950619 -0.2570409
0000d0 4e 0c d5 3e 5e 16 27 3e 98 79 65 3f 2a 60 67 3f
       0.4161095 0.16317126 0.8963866 0.9038111
0000e0 79 f7 27 bf 8d 9f 33 bd c3 21 4c bf c3 19 91 bf
       -0.6561199 -0.04385333 -0.79739016 -1.1335987
0000f0 c3 e3 13 be e3 f5 20 bf 6f 9c aa bd 9f 18 08 bf
       -0.14442353 -0.62875193 -0.083306186 -0.5316257
000100 a8 4c 85 3e f6 f7 a3 be 39 36 f2 3e df 94 9b bf
       0.26035047 -0.32025117 0.47306994 -1.2154807
000110 db af 9f bf 8b 3e c2 bf 86 79 8d bf 9d 6e b1 3e
       -1.2475542 -1.5175337 -1.1052711 0.34654704
000120 fe 8a e3 3e c5 0d e8 3e 1b f4 57 3f 48 b2 8e 3d
       0.4444198 0.45323005 0.8435685 0.06967598
000130 d7 c6 74 be ac 53 a0 be 20 22 1b c0 0e c0 ca 3e
       -0.23903976 -0.31313837 -2.4239578 0.3959965
000140 71 0e a3 bf 62 41 38 be ce d7 7e 3e 9b 07 b9 bd
       -1.2738782 -0.17993692 0.2488701 -0.09034654
000150 e0 e2 b6 3d e0 68 80 3f 22 73 6d be 0d c7 68 bf
       0.08929992 1.0032005 -0.23188451 -0.9092873
000160 cf c3 18 bf c2 1e b1 3f 9c 1c d8 3e e3 ec c4 be
       -0.5967378 1.3837512 0.42209327 -0.3846198
000170 7e cb 85 3d c0 74 1e 3f 99 68 7d be 42 07 0c bf
       0.06532954 0.61896896 -0.24746932 -0.54698575
000180 cd 71 07 bf 5c 69 46 3e e0 99 c8 3f 4e a2 5d bf
       -0.5290802 0.19376129 1.5671959 -0.8657578
000190 51 16 40 bf 81 4d 94 bf a9 61 66 bd 93 d2 f4 bd
       -0.7503405 -1.1586152 -0.05624548 -0.11954226
0001a0 ea 9c 8d bf 23 ea b7 3d b4 57 ce be 60 0a 94 bf
       -1.1063511 0.08980205 -0.40301287 -1.1565666
0001b0 d2 db 40 3e 63 2b ce 3e c4 a6 bf 3d 8c 4c a5 3e
       0.18833855 0.40267476 0.0935798 0.32284963
0001c0 6f b7 70 bd 9b 15 df bd 88 cb d0 be 99 bd 7d bf
       -0.058768686 -0.10892793 -0.40780282 -0.9911743
0001d0 8e 65 42 bd 3a 5b d7 be 16 84 1c bd 01 80 d6 bf
       -0.04746013 -0.42061788 -0.038211904 -1.6757814
0001e0 23 d3 b5 3e c4 2a e8 3e b3 cc 90 3e 7c 92 3e bf
       0.35512647 0.45345128 0.28281173 -0.7444227
0001f0 99 eb 38 be 09 db 74 be b1 ea ba bb 5d 1c 2a bf
       -0.18058623 -0.2391168 -0.005704247 -0.6644953
000200 4d ec 14 3f bc 7c 82 3d bd 6e 1b bf 83 79 b2 3e
       0.58173066 0.063714474 -0.6071585 0.3485833
000210 66 ad 99 3f f0 66 df be 7f da ce 3e 67 c3 90 3f
       1.2006042 -0.43633223 0.40401074 1.1309632
000220 11 ec 53 bf 0a 85 eb be c0 e7 d1 bd fe d9 67 bf
       -0.82782084 -0.45999938 -0.10249281 -0.90567005
000230 e2 72 47 3f f5 38 fd 3e da e9 5e 3c 9b 00 8f 3e
       0.7790967 0.49457517 0.013605559 0.2793015
000240 91 2d de be 95 ba 55 bf 18 aa 43 3f 10 6b e1 be
       -0.4339414 -0.83487827 0.7643142 -0.44026995
000250 72 65 28 3f e9 ef cc bf 8f 77 0e 3f 68 ff 97 3e
       0.65779793 -1.6010715 0.5565118 0.29687047
000260 bb 5a b9 bf 40 59 ae 3f ed e2 77 3f df 5a 80 be
       -1.4480814 1.3620987 0.96830636 -0.2506933
000270 4d fa aa be e3 4d 43 bf b7 3d 50 bf fe 39 c8 be
       -0.3339409 -0.7629072 -0.8134417 -0.39106745
000280 18 a3 99 bf e6 c2 e1 bf c6 88 0b 3f 28 dd 15 3e
       -1.2002897 -1.7637603 0.54505575 0.14635146
000290 4c d0 1a c0 da 73 a3 bf f9 63 91 be b6 df 85 b8
       -2.4189634 -1.276973 -0.28396586 -6.3836036e-05
0002a0 30 85 f9 bc e3 34 03 bd 00 e5 3f 3f 90 c5 8d 3d
       -0.030459017 -0.03203286 0.749588 0.06922448
0002b0 61 eb 50 be 88 ce af 3f c9 84 5d bd 0d e8 c8 3d
       -0.2040229 1.3734903 -0.054081712 0.09809885
0002c0 5a 41 ea be 0f 13 0d 3f 0e b8 be 3d d0 9e 7a 3e
       -0.45752984 0.55107206 0.093124494 0.24474645
0002d0 4d 23 3b 3f fa 2c aa bc 7a 14 00 bd 3f b3 8e bf
       0.7310074 -0.0207734 -0.031269528 -1.1148452
0002e0 b1 8f a8 3e 7f fa d1 bd d5 ee ba 3e 45 b4 ce bf
       0.32922128 -0.102528565 0.3651034 -1.6148764
0002f0 84 21 99 be 98 d9 ea 3e f9 53 b5 bc c7 e6 0a 3e
       -0.29908383 0.45869136 -0.022134768 0.13564597
000300 b2 1b 81 bf d5 15 ec be ed b9 14 3c 04 9b 32 bf
       -1.0086577 -0.46110407 0.009077531 -0.69767785
000310 73 4c 64 3e 35 45 32 bf 45 af eb bd 05 6b 3f 3f
       0.22294788 -0.6963685 -0.115080394 0.74772674
000320 b6 56 0b 3f ce 4c 75 3f 2b f4 fe 3c c6 62 89 bf
       0.54429185 0.9582032 0.031122288 -1.0733268
000330 56 30 43 3d 2e 81 74 3f 71 46 5c bf 8c 54 44 3d
       0.04765352 0.9550961 -0.86044985 0.047932193
000340 e2 e6 50 3f 3f 60 24 3f f8 4c d9 3c 76 2c 1d 3e
       0.816023 0.6420936 0.02652596 0.15348992
000350 e1 18 91 3e c5 34 93 3f 43 b8 70 3f 33 a5 7d 3e
       0.28339294 1.1500479 0.9403116 0.2477005
000360 ce 53 3b bf d9 49 13 bf 4c 86 ec be df 93 75 bf
       -0.7317475 -0.5753456 -0.4619621 -0.9592876
000370 a0 04 19 3f f8 bb 3f 3f ad 26 a2 3c 21 4b 11 3f
       0.5977268 0.7489619 0.019793833 0.5675526
000380 7d 63 a8 3e b2 18 09 bf cd b8 1d be 2e 8a e2 be
       0.32888404 -0.5355331 -0.15402527 -0.44246048
000390 d3 e2 5a bf ad 15 0b c0 4e 7d 91 be 61 0d 70 3e
       -0.85502356 -2.173198 -0.28415912 0.23442604
0003a0 85 18 cf be 2c 63 0e bf 3f e6 e2 be 3d 3f a2 bf
       -0.40448394 -0.55620074 -0.4431629 -1.2675549
0003b0 89 e4 23 3f 34 07 2a 3f de 4d 32 bb 5b 0b 1a 3f
       0.6402059 0.6641724 -0.0027207057 0.6017358
0003c0 82 4f a9 3f db 7a 43 3f cd b1 66 3f 97 c4 48 3f
       1.3227389 0.7635934 0.9011505 0.7842497
0003d0 1d db d9 bf f2 24 1c bf e6 c8 2a bf 1e c4 7c 3e
       -1.7019993 -0.60993874 -0.66712797 0.24684188
0003e0 47 8b a1 3f d9 89 86 3e 67 d0 86 3f 25 25 46 bf
       1.2620629 0.26277044 1.0532349 -0.7740043
0003f0 b0 dc a9 3c 40 45 19 3f 2b c8 24 3e 15 a0 7a be
       0.020735115 0.5987129 0.16091983 -0.24475129

bias f4 [64]
000000 4e 5d 85 bd f5 36 8a 3d 94 7a 7e 3f 7b a1 8a 3f
       -0.06511937 0.067487635 0.9940579 1.083053
000010 2c d8 f6 be d5 05 e3 3e 53 22 cd be 89 c2 3c 3f
       -0.482118 0.44340387 -0.4006525 0.7373434
000020 7a d9 19 bf d4 b4 74 3f f1 a0 bd 3e ef ae 40 be
       -0.6009747 0.9558842 0.3703685 -0.18816732
000030 88 c1 32 3e ce 71 e9 3e f6 ef 8b 3e 04 5c 88 3f
       0.17456639 0.4559464 0.27331513 1.0653081
000040 1d 48 c6 bc f3 a9 bb bd f3 bf 8f 3e d4 60 1f 3f
       -0.024204308 -0.091632746 0.28076133 0.62257123
000050 67 3c 1b bf 4d 94 01 3f dc 24 94 3f c1 2c 37 3f
       -0.6063904 0.50616914 1.1573749 0.71552664
000060 12 8c 6f 3f 42 da 4e be 58 88 98 be 51 e5 a6 be
       0.93573105 -0.20200446 -0.29791522 -0.3259683
000070 0a b8 93 3e b6 27 cb be ca 2d 74 be eb 62 92 be
       0.28851348 -0.39678735 -0.23845592 -0.28591093
000080 7a 24 4d 3f 74 f8 1e be 9c 5f 57 3f 2d 22 13 3f
       0.80133784 -0.15524465 0.84130263 0.57474023
000090 e6 2d 6a bc dd e1 91 be 6d 20 6e 3d b2 dc 81 3f
       -0.01429317 -0.28492633 0.058136392 1.0145476
0000a0 61 8d 18 3e 5a 53 a0 bd 95 b0 49 3f c2 6d 0c be
       0.14897682 -0.07828398 0.7878507 -0.13713744
0000b0 47 50 27 3f ba af 5b 3f 49 69 4b 3e fa ea e9 3e
       0.6535687 0.8581501 0.19864382 0.45687085
0000c0 b6 26 ce 3d a6 88 aa 3f 46 93 d9 3e b8 97 3d bf
       0.10065977 1.3322952 0.42495173 -0.7405963
0000d0 f2 61 90 be 7e ca 77 3e c8 ae 5e be a9 73 cc 3e
       -0.28199726 0.24198338 -0.21746361 0.39931992
0000e0 a4 42 a9 3e ca c9 bd be f9 d7 70 3f 77 ae 46 3e
       0.33058655 -0.37068015 0.9407955 0.1940249
0000f0 fc 8e 84 3e 5d 91 de 3e 57 f8 38 3e 28 0d 4a 3f
       0.25890338 0.43470278 0.18063484 0.78926325

weight f4 [64, 64]
000000 9d b6 e0 be 61 8a 3a be 77 e5 81 bf a5 d2 4c be
       -0.43889323 -0.1821685 -1.0148152 -0.2000223
000010 57 e8 98 3f 06 09 01 bf 6a 7a 6f 3f 52 0d 0f 3f
       1.1945904 -0.50404394 0.93546164 0.558797
000020 03 ef 80 3f 4f 80 18 be dc ba 68 3e c7 9a 20 bd
       1.007294 -0.14892696 0.22727531 -0.039210107
000030 32 4d 3a bf a6 9c 8f 3e 2a 0a 4a 3f 29 fb e3 3d
       -0.7277404 0.280492 0.7892176 0.111318894
000040 1d c6 0d bf de 6f cc 3d f0 41 37 bf 84 26 48 3f
       -0.5538042 0.099822745 -0.7158499 0.7818377
000050 ca 57 97 bf c9 90 d1 bd bb e0 4e be a9 7f 6e bf
       -1.1823666 -0.10232694 -0.20202915 -0.93163544
000060 ae d2 ea 3d 92 bd d2 bc 29 a9 ec 3e ef 01 39 3e
       0.11465965 -0.02572516 0.4622281 0.18067144
000070 87 0d ba 3e 7a 7c 4b 3e dc cf 0f 3f f9 9b d6 3e
       0.36338446 0.19871703 0.56176543 0.41915873
000080 7c cf 00 3e 2d ce 2b 3e 93 07 b9 3e ae de c7 3e
       0.12579149 0.16777869 0.3613859 0.3903708
000090 1b 36 52 bd b1 0f 50 3e 9c 26 a4 bf 2a 44 70 3d
       -0.05132113 0.20318486 -1.2824283 0.058658756
0000a0 c7 fc d9 be 89 ba a5 3e 72 83 30 3d 5e 4e 51 bf
       -0.42575666 0.32368878 0.043094106 -0.81760204
0000b0 bf 87 30 3f 3a 36 a2 3a 40 3b 6b 3d a9 80 93 bd
       0.6895713 0.001237578 0.057429552 -0.07202274
0000c0 b1 94 04 3f 0b f8 5f bf a1 90 d7 3e 9d bb d8 be
       0.51789385 -0.8748786 0.4210253 -0.42330638
0000d0 86 9f 68 3f 6d 72 1c 3e 2c 35 99 be c2 6f 03 3e
       0.90868413 0.15278025 -0.2992338 0.12835601
0000e0 ad 18 da 3e 76 0b 28 3f 39 50 4a be af a2 f5 be
       0.4259695 0.6564249 -0.19757165 -0.4797568
0000f0 4d f4 67 3e f8 2c cf be 27 89 4e 3f 18 51 e3 be
       0.22651787 -0.40463996 0.8067803 -0.44397807
000100 83 ad 20 be 59 33 87 3d b6 8e a6 3e c6 9f e1 3c
       -0.1569119 0.06601591 0.32530755 0.027542006
000110 4a 81 f8 3d 53 b8 0e bf 4d 72 35 bd 36 3b 7e c0
       0.12134035 -0.55750006 -0.04429846 -3.972364
000120 bc fb 30 c0 bd 74 c7 3d 3f 4e 99 c0 cc ac a5 3d
       -2.7653646 0.09739063 -4.7908015 0.08089599
000130 18 37 5e bd 71 cf 95 c0 24 7b d5 bf 02 d3 10 3d
       -0.05425176 -4.6815724 -1.6678205 0.035357483
000140 dc 00 11 3e ad 1f 0a c0 84 12 47 bf 1c 62 a8 3e
       0.14160484 -2.1581833 -0.7776263 0.32887352
000150 1c 8e 81 bf d6 d1 69 c0 fc c6 f3 3d 55 7d 81 3f
       -1.0121493 -3.6534324 0.11903188 1.0116373
000160 cd 06 81 c0 4c 0a 98 3c 39 77 ab 3c b1 7c 16 c0
       -4.03208 0.018559597 0.020930873 -2.3513606
000170 1e 8c 44 c0 e5 7b 19 c0 22 d4 1f be 60 f3 41 c0
       -3.071052 -2.398187 -0.15608266 -3.0304794
000180 20 ef 68 c0 44 76 c2 bf ff 7f 11 bd 05 24 06 be
       -3.639595 -1.5192342 -0.035522457 -0.13099678
000190 4b 4e 29 3d 6d b5 3a 3f 40 04 51 3f 25 e5 e4 bd
       0.04133443 0.72933084 0.8164711 -0.11176518
0001a0 8b 9f 27 be 8d 90 54 c0 5e b0 41 3e 10 8c 2b 3e
       -0.16369455 -3.3213227 0.18914935 0.16752648
0001b0 66 12 7c 3e 92 c6 fa bb d8 e0 5e c0 e8 74 b5 c0
       0.24616393 -0.007653066 -3.4824734 -5.670521
0001c0 fa 25 34 3e 85 56 e2 3e 04 66 4a c0 a4 5a 7e 3d
       0.17592612 0.44206634 -3.1624765 0.06209816
0001d0 65 9c 38 be 14 f0 09 bc 54 af 8a 3b 40 e7 6c c0
       -0.1802841 -0.0084190555 0.0042323265 -3.7016144
0001e0 12 d9 74 c0 99 d6 9c be 93 e7 b9 3e 4a 04 5c bf
       -3.825749 -0.30632475 0.3630949 -0.85944045
0001f0 ab 6d 31 c0 d2 74 0e c0 05 d1 31 c0 9e 6b a6 bf
       -2.7723186 -2.2258801 -2.7783825 -1.3001592
000200 47 be 9d bf 36 f7 97 3e 16 f8 e0 bf 3a 4c 88 be
       -1.2323693 0.29680794 -1.757571 -0.26620656
000210 21 78 91 3f 58 c0 05 c0 d9 73 e2 3e 06 21 72 3f
       1.1364785 -2.0898647 0.4422901 0.9458164
000220 c2 56 f0 3f 44 93 bb bd 51 6a b1 3e de af d0 3e
       1.8776476 -0.09158948 0.34651425 0.40759176
000230 40 cf 91 bf a4 71 0f 3f f2 cf 7e 3f ca 95 f8 bd
       -1.1391373 0.56032777 0.9953605 -0.12137945
000240 49 43 66 3e da eb 19 3f 16 c8 24 bf 28 7d f1 be
       0.22486605 0.60125506 -0.64367807 -0.471658
000250 f6 a1 14 c0 58 05 14 3d 3b 06 03 bf 7d f5 96 bf
       -2.3223853 0.03613791 -0.5118138 -1.1793667
000260 3f 55 b2 3e d4 c1 5c bd 78 98 e8 3e b9 c6 3b 3f
       0.34830663 -0.053895786 0.45428824 0.733501
000270 31 e3 8e 3f a5 e0 59 3f f8 0b 81 3f 52 a2 45 3f
       1.1163083 0.85108405 1.0081778 0.77200806
000280 36 b8 46 3e 34 e9 2e 3f 76 16 34 be 7a 0c c2 3e
       0.19406208 0.6832459 -0.17586693 0.37900144
000290 51 76 5a bf 75 a4 f1 bf a8 a4 b5 bf bc df 6c be
       -0.85336787 -1.8878313 -1.4190874 -0.23132223
0002a0 8c 03 af bf a6 32 31 3f 0b c9 f4 be 24 c7 0e c0
       -1.3672957 0.6921791 -0.47809634 -2.2309046
0002b0 dd 20 1a 3e 49 86 33 3e 73 1c ae 3e 72 de d5 3e
       0.15051599 0.17531694 0.3400608 0.41771275
0002c0 c9 e8 87 be 9d 18 a9 bf aa 7b 43 3f 0f 58 9a bf
       -0.26544788 -1.3210636 0.7636057 -1.2058123
0002d0 d8 b4 b2 3f a0 8b e7 3e 0f fb e0 3e c4 01 ae 3e
       1.3961439 0.45223713 0.43941543 0.33985722
0002e0 b0 32 29 3f de 04 a0 3e a7 b6 87 3d b7 01 fe bd
       0.6609297 0.31253713 0.06626635 -0.12402671
0002f0 42 51 3c 3f 05 c8 8a 3e e5 97 f5 3e 77 88 b8 bf
       0.7356149 0.27105728 0.4796745 -1.4416646
000300 2c b8 d3 bf 69 dc a4 3f d6 1d c1 be 13 60 c4 3e
       -1.654058 1.2879764 -0.37718076 0.3835455
000310 ac 7d c5 3e 85 6e b1 bf 80 18 95 3e 06 4f 13 c0
       0.38572443 -1.3861853 0.29120255 -2.3016982
000320 73 57 fd be 27 12 77 3f 5d 6a 4b 3f d4 6d 2e bf
       -0.4948078 0.96512073 0.7945917 -0.68136334
000330 a1 b2 9c bf 5d 97 35 be 77 0e 12 bf 67 e0 20 bd
       -1.2242013 -0.17733522 -0.5705332 -0.039276507
000340 87 70 f2 be c5 80 e5 bd 89 8c f8 bf 72 98 fc be
       -0.47351477 -0.112062015 -1.9417888 -0.49335057
000350 e1 5e f8 bf d5 db 22 3f 68 86 b6 3c 97 03 1c c0
       -1.9403955 0.6361669 0.022280887 -2.437719
000360 81 b3 87 3d 16 16 30 3e d7 cf 89 3d 12 96 af 3d
       0.066260345 0.17195925 0.067290954 0.085735455
000370 66 cc 21 c0 df 50 f7 3c 73 2f 64 3f 6e 83 70 3f
       -2.5281005 0.03018993 0.891349 0.93950546
000380 09 64 dd be ad f9 c0 bd 3f 02 e3 3e 3f c4 95 3f
       -0.43240383 -0.09422622 0.4433765 1.1700515
000390 9c ab ed be 7c 1e 53 bf 21 e0 44 c0 7b 7b c1 3d
       -0.4641999 -0.8246839 -3.0761797 0.0944738
0003a0 54 e9 08 c0 70 16 70 bf 24 d4 83 3e 8e a5 33 c0
       -2.1392412 -0.93784237 0.25747788 -2.8069797
0003b0 74 5f 87 bf 1d 7f b4 3e 49 9b a9 bf aa 46 98 3d
       -1.0576005 0.3525323 -1.3250514 0.07435353
0003c0 2b 59 58 3f 6f 45 69 bd 15 35 06 c0 e3 ff d9 be
       0.8451106 -0.056950983 -2.0969899 -0.4257804
0003d0 ae 77 e1 3e ee e4 bc bd 8a 59 68 be bb d7 7e bc
       0.4403662 -0.092233524 -0.22690406 -0.015554364
0003e0 27 37 06 c0 ab 9c af be 09 5d 57 3d b3 fd 8c 3e
       -2.0971162 -0.34299216 0.05257896 0.27537307
0003f0 24 9f 28 bf 8f b5 e1 3e 9b 79 0b 3c 54 de 90 be
       -0.6586783 0.4408383 0.00851288 -0.28294623

bias f4 [64]
000000 53 68 7d 3d f3 13 e6 bb a2 9b 3d bf 9e 5b 54 3e
       0.06186707 -0.007021421 -0.740656 0.20738074
000010 44 3f 26 be 6a 88 f8 3c d2 c9 06 3f 7d 40 d5 be
       -0.16235071 0.030338485 0.52651703 -0.41650763
000020 3d b7 f8 be b4 e6 10 bf 30 03 05 bf dd 73 06 3f
       -0.485773 -0.56602025 -0.5195799 0.52520543
000030 10 15 12 bf d5 f1 ec be 8c f3 e6 be 2f 13 3b be
       -0.5706339 -0.46278253 -0.45107687 -0.18269037
000040 14 b9 a8 bc e1 19 9c 3e 76 70 18 bf 6d c8 93 bc
       -0.020596065 0.30488494 -0.595466 -0.018039906
000050 a0 bd 13 bd 4f 7e a2 be 5f ad 9e 3e 05 54 a5 3f
       -0.036069512 -0.3173699 0.30991647 1.2916266
000060 25 f9 ff be 3c c7 0a bf 8e 90 1a bf ba 15 13 bf
       -0.4999477 -0.5421026 -0.6037682 -0.5745503
000070 3f 66 a9 3d 62 e8 81 3e 2d 76 f8 bc 37 9a c1 be
       0.08271455 0.25372607 -0.030329788 -0.3781297
000080 fd 3e b7 be b0 ed 6a 3f f4 38 23 bf 34 0b 1b 3c
       -0.35790244 0.9176893 -0.6375878 0.00946312
000090 91 05 d6 be 6a 33 49 bd 0e ba 2b 3c d6 3d e5 3e
       -0.41801122 -0.049121298 0.010481371 0.4477374
0000a0 5d 8c 3a be 9f 73 33 bd 01 9d c8 be fb 95 02 be
       -0.18217607 -0.043811437 -0.39182284 -0.12752526
0000b0 fd 61 3a bf a6 73 98 bd ef 13 81 3d 95 67 1c be
       -0.7280577 -0.07443933 0.0630263 -0.15273888
0000c0 c0 6e 02 bd 7c 0c 1c be 53 19 4e bf 98 78 93 bd
       -0.0318439 -0.15239137 -0.8050739 -0.07200736
0000d0 46 e0 15 bf 55 20 e7 be 30 b0 c4 3e 39 0a 85 bd
       -0.5854534 -0.45141855 0.3841567 -0.064960904
0000e0 ad 6e 26 3e 6b 23 c6 be 25 a4 0e bf f4 1a 1e 3f
       0.16253157 -0.38698897 -0.55719215 0.6175988
0000f0 f2 16 10 bf bc 86 51 3f cb 72 9f bd f7 29 c3 bd
       -0.5628501 0.81846213 -0.07785567 -0.095294885

weight f4 [4, 64]
000000 fa 14 2e bf 1f bb ff 3f 30 ce 14 bf af 9c 8b bf
       -0.6800076 1.997898 -0.5812712 -1.0907191
000010 15 8c 80 3d 9d 03 ae bc 88 b1 9a bf b7 5d 9d bf
       0.062767185 -0.021241957 -1.2085428 -1.2294225
000020 94 7d 94 bf ed 8c cc be 93 39 9c bf d9 e4 e0 3f
       -1.1600823 -0.39951268 -1.220507 1.7569839
000030 f8 1f 8f bf 8b 21 8e bf ef 35 86 bf 70 87 a7 bf
       -1.1181631 -1.1103987 -1.0485209 -1.3088207
000040 ec 38 fa 3c 27 72 02 40 92 86 82 bf 0b 1b a1 bc
       0.03054472 2.0382173 -1.0197318 -0.019666215
000050 90 30 87 bc 6f be 41 bf 50 8e 91 bf b0 34 cd 3f
       -0.016502649 -0.75681204 -1.1371555 1.6031704
000060 b4 26 aa bf c9 d6 8b bf 8e a5 88 bf af f9 41 bf
       -1.3293061 -1.0924922 -1.0675523 -0.7577161
000070 cf 3a 76 bf 1c f0 47 3f 16 0d f2 3d 9f f9 b3 bf
       -0.96183485 0.7810075 0.11818902 -1.4060553
000080 c1 26 40 bf 5d 09 9c 3f d5 8f 6f bf 18 1a ac 3f
       -0.75059134 1.2190357 -0.93578845 1.3445463
000090 48 13 32 bf 5b 90 b3 3f 2e 74 53 bf 91 33 c9 3f
       -0.6956067 1.4028429 -0.8259915 1.5718862
0000a0 57 26 40 bf a9 72 ef 3f 6d 20 cf bf 14 ca f1 3c
       -0.750585 1.8706867 -1.618177 0.029515304
0000b0 25 39 06 bf fa 36 8f 3f 79 25 63 bf 1f 15 d8 bf
       -0.52430946 1.1188653 -0.88729054 -1.6881446
0000c0 5d d1 be 3c 5e 23 b2 3d d8 4e 53 bf 2f 94 09 3d
       0.023293192 0.08698152 -0.8254218 0.033588585
0000d0 5b 6c 4c bf bc f0 8a bf 62 00 11 3f 06 b4 22 bd
       -0.7985284 -1.0854716 0.5664121 -0.039722465
0000e0 14 fd de bf 5c 62 4c bf dc e0 a3 be 7e 23 bd 3f
       -1.7420983 -0.79837584 -0.32007492 1.4776456
0000f0 bc 80 1b bf d5 f3 7b bf 03 e9 b1 bd be 13 d7 bf
       -0.6074331 -0.98418933 -0.086870216 -1.68029
000100 a5 92 43 bf 5d dd 00 40 05 e9 95 bf de 15 d2 bf
       -0.76395637 2.013511 -1.1711737 -1.6412923
000110 c3 cb bc 3d 5c 6d 8a 3d 93 2c 8e bf f3 16 98 bf
       0.09218552 0.0675914 -1.1107353 -1.1882004
000120 5d d9 5e bf 66 54 79 bf 28 7a 7c bf 7c 3a dc 3f
       -0.8705042 -0.97394407 -0.98623896 1.7205348
000130 98 83 80 bf 4f 3e 32 bf d1 da d5 be 6e 0f de be
       -1.0040159 -0.69626325 -0.41768506 -0.43371147
000140 96 de 80 bd 58 03 e0 3f 21 38 fc be 14 c3 3f 3d
       -0.06292455 1.750102 -0.49261573 0.0468169
000150 2d 45 c6 3c 18 00 37 bf d9 d6 c3 bf c9 08 c4 3f
       0.024202907 -0.7148452 -1.5299941 1.5315181
000160 f5 e4 83 bf e0 9c 36 bf 8f 53 09 40 97 4d 35 bf
       -1.0304247 -0.7133312 2.145725 -0.7082152
000170 82 06 96 bf 5c c1 b9 3f 80 7d 1e bd f2 b0 8d bf
       -1.1720736 1.4512134 -0.038693905 -1.1069624
000180 b9 ff 64 bf a1 12 a3 3f 31 69 53 bf c6 be d7 3f
       -0.894527 1.274006 -0.82582384 1.6855094
000190 97 2a 15 bf e7 0e e4 3f 18 74 b4 bf b5 5e df 3f
       -0.5826811 1.7817048 -1.4097929 1.7450777
0001a0 72 3d 2e bf b5 ef b9 3f cb 90 7e bf e8 49 92 3c
       -0.6806251 1.4526278 -0.99439687 0.017857507
0001b0 4b 29 05 bf 50 79 80 3f cb 11 97 bf f8 4f cb bf
       -0.52016133 1.0037022 -1.1802305 -1.588378
0001c0 f3 f4 61 3c 93 66 74 bd 7c b5 9c bf a7 bb de bd
       0.013791311 -0.059668135 -1.2242885 -0.108756356
0001d0 30 9b 94 bf c1 26 2c bf 94 5a 6e 3e 16 06 b0 bd
       -1.160986 -0.67246634 0.2327674 -0.08594911
0001e0 b5 ce 87 bf 87 f6 52 bf 39 50 9c bf 23 58 cf 3f
       -1.0609957 -0.8240742 -1.2211982 1.6198772
0001f0 8e 75 59 be 52 f1 b5 bf d6 f6 98 bc 9a 6a 78 3e
       -0.2123625 -1.421427 -0.018672388 0.24259415
000200 23 de 1a be 49 e8 b1 3f e6 5f a1 bf a3 a9 df bf
       -0.15123801 1.3899013 -1.2607391 -1.7473644
000210 3a b2 bf 3d 95 c1 f9 3c d5 81 50 bf dd ee 13 bf
       0.09360166 0.030487815 -0.8144811 -0.5778635
000220 46 f6 3d bf 55 0a fa bf 7c e2 81 3e 5c 0b d5 3f
       -0.7420391 -1.9534403 0.25368106 1.6644092
000230 56 91 2f bf b2 3d b5 bf 2a cf 86 bf fb 89 dc be
       -0.6858114 -1.4159453 -1.0531971 -0.4307402
000240 6b 9e b6 3d a7 d6 81 3f 72 bc d4 bf e6 ca ac bd
       0.089169346 1.0143632 -1.6620009 -0.08437137
000250 6d 90 b9 3c 13 21 b3 bf af 43 41 bf b8 57 bd 3f
       0.022651875 -1.3994468 -0.754939 1.4792395
000260 3d 11 8d bf 1a 8c 88 bf 20 0e 6f bf 4a af fb bf
       -1.1020886 -1.0667756 -0.9338093 -1.9662869
000270 ef 1d 70 bf 9e bd 62 be 17 b4 ab 3d 45 10 5a bf
       -0.93795675 -0.22142646 0.08383959 -0.85181075
000280 d4 c2 be be 17 cf a7 3f f8 e2 8e bf 0a e1 f8 3f
       -0.37258017 1.3110074 -1.1163015 1.9443676
000290 af 1d ee be 91 3e cd 3f 37 d4 98 bf e0 dd f0 3f
       -0.46507022 1.6034719 -1.1939763 1.8817711
0002a0 08 53 bf bd 06 ba eb 3f ef 0d 1c be a4 25 13 3d
       -0.09342009 1.8416145 -0.1523969 0.03592457
0002b0 37 11 c9 bf 70 d6 92 3f a0 5c 8b 3f 3d 22 b1 3e
       -1.5708379 1.1471691 1.0887642 0.34596434
0002c0 45 ac 09 be 56 4a 82 3d e7 e6 a7 bf 83 48 63 bd
       -0.13444622 0.06361835 -1.3117341 -0.055489074
0002d0 1e 5f 3e bf fc 05 77 bf be 03 d7 3f 69 db 64 bd
       -0.7436389 -0.96493506 1.6798017 -0.05587331
0002e0 b5 7b ca bf be b8 91 bf e9 a2 f0 be 3e d5 de 3f
       -1.5819002 -1.1384504 -0.4699929 1.7408826
0002f0 80 03 6c bf db 20 e1 bf 7c 7e 9d bc 2a cb 71 be
       -0.9219284 -1.7588152 -0.019225352 -0.23612657
000300 f6 e9 82 bf e1 b5 d3 3f 07 3d 91 bf 61 e7 8f bf
       -1.0227649 1.653988 -1.1346749 -1.1242486
000310 2c 57 ab 3d ed d7 65 3d 67 ec 69 bf 0e 00 9d bf
       0.08366236 0.056114126 -0.91376346 -1.2265642
000320 40 5c 02 bf b8 94 55 bf fb de cb be 9d 53 bb 3f
       -0.5092201 -0.8343005 -0.39818558 1.4634892
000330 94 9b 78 bf 89 11 de bf df 67 a4 bf 98 93 8f bf
       -0.97112393 -1.7349101 -1.2844199 -1.1216917
000340 f7 76 53 3d d2 c7 c8 3f bc 21 c8 bf 9f c1 b1 3d
       0.051627126 1.568598 -1.5635295 0.086795084
000350 11 8e 7e 3c 73 ba 5d bf e0 d2 14 bf 48 01 b6 3f
       0.015536801 -0.86612624 -0.5813427 1.4219141
000360 46 16 3e bf b2 0e ae bf 25 3f 29 3f 25 4f 7f bf
       -0.74252737 -1.3598235 0.66111976 -0.9973014
000370 dd bc 6b bf 93 b5 b9 bb 20 e8 1e 3c 3f 78 35 bf
       -0.9208506 -0.0056673973 0.009698898 -0.70886606
000380 95 5d 27 bf 6f e7 a9 3f 07 43 79 bf 6f 2d b1 3f
       -0.6537717 1.3273753 -0.973679 1.384199
000390 c5 be e2 be e9 29 b1 3f 34 51 87 be 24 1d c6 3f
       -0.4428617 1.3840915 -0.2642914 1.5477643
0003a0 ab b5 df 3d 50 db 02 40 ca 7a 5b bf cf d9 74 3d
       0.10923322 2.0446358 -0.85734236 0.05977803
0003b0 da 66 7d bf 92 48 95 3f 6f 45 36 bf bb fc 67 bf
       -0.98985064 1.1662772 -0.711997 -0.9062001
0003c0 40 c0 8f 3d 80 98 5c 3c 7d bd 05 bf f4 53 9c 3a
       0.07019091 0.013464093 -0.5224226 0.0011926875
0003d0 cd ef a0 bf dd 9a 8d bf b3 f3 af 3f 6c 15 de bc
       -1.2573181 -1.1062886 1.3746246 -0.027109824
0003e0 d9 39 07 c0 05 47 80 bf 15 06 2f 3e 69 5a fa 3f
       -2.1129057 -1.0021673 0.17092164 1.9558841
0003f0 00 5c ba bf 70 b4 8f bf b9 d2 38 3d 63 d1 d8 bf
       -1.4559326 -1.122694 0.045122836 -1.69389

bias f4 [4]
000000 ab d4 12 be 34 ef fc 3e c3 10 98 3f 3b 0e 16 3f
       -0.14338939 0.49401248 1.1880115 0.58615464

exp_avg f4 [64, 8]
000000 95 41 19 3d ab 5d 52 3e 84 58 04 be aa 41 35 be
       0.03741606 0.20543544 -0.12924391 -0.1770083
000010 13 f6 be 3d d8 ac c9 bd a6 08 9c 3a 5f 13 81 bd
       0.09324279 -0.098474205 0.0011904433 -0.06302523
000020 04 1c ef 3b 93 87 d0 bc eb 68 77 3c e6 11 82 bc
       0.007297041 -0.025455272 0.015100698 -0.015877675
000030 80 c6 00 3c 70 55 67 bc f1 ea 76 39 09 1d 8d 91
       0.007859826 -0.014119491 0.0002354791 -2.2263772e-28
000040 0e cf 38 bc f6 a4 c2 3d 20 71 32 bd a2 96 6b bd
       -0.011279834 0.0950412 -0.043564916 -0.0575167
000050 37 e4 4f 3b f4 ef ea bc d5 40 d0 3e 11 14 cd 3e
       0.003172172 -0.028678872 0.40674463 0.40054372
000060 4c 98 93 3d bf 84 ab 3d 29 ea 21 bd 82 bc 9b bd
       0.07206783 0.08374929 -0.039529953 -0.076043144
000070 12 8b 69 bd 94 dd cf bd f9 ac e8 3c 18 54 01 bd
       -0.057017393 -0.101496845 0.028402792 -0.03157434
000080 b4 61 37 3e 27 1e bf 3d 4b ec 13 bf 60 f2 ff bd
       0.17908365 0.09331923 -0.5778243 -0.12497401
000090 43 84 75 3e 9b 37 15 bf c1 20 b5 be f7 f0 bd be
       0.23976235 -0.5828797 -0.35376552 -0.37097904
0000a0 60 07 0d be ac 3e 83 bd 68 7b e5 3e e0 9a 3a bd
       -0.13772345 -0.06408438 0.44820714 -0.045557857
0000b0 51 22 85 bc 7b 3c 17 3f 7e 5f 9d 3e 20 3a 5c 3e
       -0.016251715 0.5907666 0.30736917 0.21506548
0000c0 cb 58 e8 3d f2 33 ea 3a 72 31 95 be 8c 23 69 bd
       0.11345061 0.0017868264 -0.29139286 -0.056918666
0000d0 83 5a cd 3d 22 b3 bc be 4e 4b 90 be b2 19 3d be
       0.10027029 -0.36855417 -0.28182453 -0.18466833
0000e0 8c f0 3a 3c e9 b9 29 be 01 6b ae ba c8 94 bd bc
       0.01140989 -0.16574825 -0.0013307036 -0.023142233
0000f0 a9 76 62 3d 96 ee 8c 3e 6f 38 a4 bb fc 7d cd bc
       0.055288944 0.27525777 -0.00501161 -0.025084488
000100 61 c4 b0 3d 14 31 25 3d 39 c1 34 3d e5 62 c8 3d
       0.08631206 0.040330008 0.044129584 0.09784488
000110 89 61 8b 3d 89 1d 02 be 54 55 30 39 da e1 c7 3e
       0.06805713 -0.1270658 0.00016816455 0.390395
000120 87 9c b6 3d 71 39 cb 3d 52 13 2d bd 64 86 de bd
       0.08916574 0.099230655 -0.042254753 -0.10865477
000130 0b 58 07 bd 7d 6a f8 bd 04 00 00 80 23 0a db bb
       -0.03304295 -0.12129686 -6e-45 -0.006684558
000140 ed 6d 13 be 56 2e 56 3e 45 66 80 be a7 de 44 3e
       -0.14397402 0.20916113 -0.25078025 0.1922556
000150 4d 64 68 3d 9a f6 27 3d 26 77 35 be 0f 57 22 be
       0.05673628 0.041006662 -0.17721233 -0.15853523
000160 6e 8e 0e bb 6b 20 9b bd 68 0b 99 bc b9 48 5e 3d
       -0.0021752375 -0.075745426 -0.018682197 0.054268572
000170 0c 1e 09 3b 4a 14 19 bc 4a a7 af bd a7 1b 99 bd
       0.002092245 -0.009343216 -0.0857683 -0.074759774
000180 d7 54 e5 3d 71 02 d7 3d 42 bf 51 bd bb 96 12 be
       0.111978225 0.104985125 -0.05120779 -0.14315312
000190 c1 61 e1 3c c8 2a 64 be b6 bc 37 3f e4 3f 3c 3f
       0.027512433 -0.22281945 0.71772325 0.7353499
0001a0 cd a0 a1 3d db dd 87 3b 41 63 2b be 7c 7d 4c 3c
       0.078919984 0.0041463203 -0.16737081 0.01248109
0001b0 32 14 5c 3d b1 e6 4f be 94 97 91 bd ef 99 6b bd
       0.053730197 -0.20302846 -0.07108989 -0.05751985
0001c0 86 b4 1e be 47 2a 62 be e5 ad 56 3e 40 30 1f 3e
       -0.15498552 -0.2208644 0.20964773 0.1554575
0001d0 af a2 4f bd 12 84 b3 3e 30 5b a9 bd 35 40 d0 3b
       -0.050692257 0.350617 -0.08269346 0.0063553103
0001e0 b2 12 09 3c d4 c5 b9 3d 9f ba 88 3d 5e 33 d0 bd
       0.008366274 0.09070936 0.0667622 -0.101660475
0001f0 84 27 38 bb e1 ff bf 3c 40 c0 b6 3e df d5 9d 3e
       -0.0028099725 0.023437442 0.3569355 0.30827233
000200 6f 2e 4d 3d 02 d9 f6 bd 99 5b 08 bc 1b ac 9f 3d
       0.05009311 -0.1205311 -0.00832262 0.077964984
000210 8d 37 f5 3c 2b 52 f7 bb 85 a7 41 be 2b fb 7b be
       0.029933715 -0.007547637 -0.1891156 -0.24607532
000220 3a aa c8 3d 01 43 4d 3d ae 3c 2d be d9 11 7f bc
       0.09798093 0.050112728 -0.16917679 -0.01556822
000230 2d 4d 9f 3d c0 67 49 be 2a 94 8f be 1c 72 78 be
       0.07778392 -0.19668484 -0.28042728 -0.2426228
000240 5c b6 8a bd c8 cc 9d 3e e7 3e 0c be c5 01 f7 bd
       -0.067730635 0.30820298 -0.1369587 -0.120608844
000250 3a 60 3d bd d4 d7 85 be 67 a6 0b 3e ac 3f 48 3e
       -0.046234347 -0.26141226 0.13637696 0.19555539
000260 17 f4 f6 3c ef ac 07 3d 45 b9 c6 bc 27 e5 93 bc
       0.030145688 0.033123907 -0.024258265 -0.018053604
000270 f0 70 94 bc 59 01 5e bd e5 b6 a6 3b 80 09 08 3b
       -0.018120259 -0.054200504 0.0050877207 0.0020757616
000280 39 66 8b bb 17 ad c7 bc 50 37 cc 3c 07 e9 57 3a
       -0.0042541292 -0.024374528 0.024928719 0.0008236323
000290 94 da 47 3d a5 78 61 3d ed 86 12 bd d3 1d a2 bc
       0.048792437 0.055046696 -0.035773207 -0.019789612
0002a0 a8 18 d1 bc 7f 59 2f 3e 47 b1 3d be 60 42 2c bc
       -0.025524452 0.17123984 -0.18524657 -0.010513872
0002b0 7c c0 35 3d 09 bb 9d 3c 74 b9 57 be 8a 9e 82 be
       0.04437302 0.019254224 -0.21066839 -0.2551158
0002c0 ca 9f ac 3c b6 de c6 3d 56 9b 6d bd 9c e3 95 bd
       0.021072287 0.097104475 -0.058009468 -0.07318804
0002d0 fd 41 30 bd 32 5f b1 bd 29 a9 f3 3e 03 dd ac 3e
       -0.04303168 -0.08660735 0.47589996 0.3376237
0002e0 04 21 5a 3d 3a 9b 99 3f 85 2a 85 3e 3a eb de be
       0.053254142 1.2000496 0.26009002 -0.4353884
0002f0 dc d6 41 bd 04 ff bc 3b 5c 77 c0 3f 3a 5b bc 3f
       -0.047324046 0.005767705 1.5036426 1.471534
000300 ef 84 73 3c e0 1f d4 bd 48 f6 a3 bd 77 c1 ee 3c
       0.014863237 -0.10357642 -0.08005959 0.029144986
000310 16 b1 86 3b fa d1 87 bd b2 91 b5 bd 38 1d 2c bd
       0.0041104658 -0.06631847 -0.0886568 -0.042020053
000320 a6 2b 31 3d c9 86 43 3d 8f 26 3a bd 1e 04 cb bd
       0.043254517 0.047735963 -0.04544693 -0.09912895
000330 42 33 ee 3b f9 8f b5 bd fc 26 a2 3c 21 13 a6 3c
       0.007269294 -0.08865351 0.01979398 0.020272793
000340 25 82 e1 3d b6 bb a1 bc 0e cf 5e be 06 c3 18 bd
       0.11011151 -0.019742828 -0.21758673 -0.037295364
000350 28 8a 9f 3d 76 ae 75 be 44 ec b7 be a4 75 ad be
       0.07790023 -0.23992333 -0.35922444 -0.33878815
000360 c5 b9 26 3e df e1 1e 3e 76 25 a2 be dd 7e 33 be
       0.16281803 0.1551585 -0.31669205 -0.17528863
000370 ca 32 07 3e 58 a8 a7 be 15 a7 ed be 28 a1 df be
       0.13202968 -0.32745624 -0.46416536 -0.4367764
000380 0b 78 87 3d 94 5c 27 bf 13 77 84 3e 9c 58 aa 3e
       0.06614693 -0.6537564 0.25872096 0.3327073
000390 25 d2 b5 bd 2e 83 a5 3e 61 bf e7 bd 0a 4e 9d bd
       -0.088779725 0.32326645 -0.113157995 -0.076809004
0003a0 74 05 27 3e 04 02 c7 bb c6 72 4e be 29 49 5f bc
       0.16310674 -0.0060732383 -0.2016097 -0.013628283
0003b0 90 03 df 3d fd 66 57 be 40 40 2d bf 8e 2b 3f bf
       0.10889351 -0.2103538 -0.6767616 -0.74675834
0003c0 53 c1 18 bd d0 b1 a1 bd 8b 4a 9d bd 86 26 5a 3d
       -0.037293743 -0.07895243 -0.076802336 0.053259395
0003d0 0c d7 14 bb 6f ce 12 bc ce c5 bb 38 6e ee 7a bd
       -0.0022711186 -0.00896035 8.953699e-05 -0.06126254
0003e0 ce 65 1f 3e f1 80 8d be fe 41 e1 be 70 b8 d4 bd
       0.15566179 -0.27637437 -0.4399566 -0.10386741
0003f0 81 64 6e 3e 74 07 d2 be 52 86 55 3b 36 55 c7 3c
       0.23280527 -0.4102131 0.0032581282 0.024332624

exp_avg_sq f4 [64, 8]
000000 42 8d 96 3e 49 df 08 3f 9e 02 47 3f 6c 19 f8 3f
       0.29404646 0.53465706 0.7773837 1.9382758
000010 c5 ed ea 3e 93 d9 a5 40 88 63 14 3f 36 42 b2 3f
       0.4588453 5.1828094 0.5796437 1.3926456
000020 03 dd a8 3c e8 a9 91 3e 47 6b 19 3d 82 a2 82 3c
       0.0206132 0.2844994 0.037455823 0.01594663
000030 c4 92 82 3b fa 56 2e 3e a0 6b be 3d dd 04 a2 3d
       0.003984781 0.17025366 0.092978716 0.07911084
000040 2b 19 00 3f 30 45 31 40 7e 21 70 3f 39 30 5d 40
       0.50038403 2.7698479 0.93801105 3.4560683
000050 80 f4 a7 3f 8a b5 89 41 ee fd c1 40 82 c7 2a 41
       1.312149 17.213642 6.0622473 10.673708
000060 27 a3 ba 3e b4 16 91 40 28 05 85 3f 86 1a 6f 40
       0.364526 4.5340214 1.0392199 3.7359939
000070 58 a0 cf 3f 84 8a c0 40 f4 bb eb 3d 02 1f e0 3f
       1.6220808 6.0169086 0.115104586 1.7509463
000080 d4 6a b2 3f ab 8e e9 40 1e 32 9b 40 d1 41 0e 41
       1.3938851 7.2986655 4.849868 8.891068
000090 8b ee 64 40 89 51 91 41 df b8 8e 41 ad 1f 8c 41
       3.5770595 18.164812 17.84027 17.515467
0000a0 84 b7 48 3f ad 65 e4 3c ff 2a 9a 40 35 fe f8 3f
       0.7840502 0.027880514 4.8177485 1.9452578
0000b0 87 f9 05 3f f9 ab 9b 41 44 67 8e 41 ed ec 6d 41
       0.52333874 19.458971 17.800423 14.870343
0000c0 78 cd 09 3f ff b7 c5 3f 56 fa bf 3f 2c ce 43 40
       0.53829145 1.5446776 1.4998271 3.0594587
0000d0 6b b5 a2 3f c4 83 f6 40 51 4e cb 40 91 51 ca 40
       1.2711614 7.7035847 6.35331 6.322457
0000e0 1c 2f 45 3f f0 77 42 41 f4 e2 3b 40 01 34 1e 41
       0.7702501 12.154282 2.9357271 9.887696
0000f0 87 b4 2b 40 58 4e bf 40 f6 35 b2 40 3c 97 cf 40
       2.6828935 5.9783134 5.569087 6.487211
000100 8f 76 1e 40 56 a4 ae 40 ad 80 8f 40 00 0b 48 41
       2.4759862 5.4575605 4.4844575 12.502686
000110 66 19 c0 40 5b a1 ee 41 fd 0a 58 40 52 47 43 41
       6.0031004 29.828787 3.3756707 12.204912
000120 53 81 a5 3e 61 19 b3 40 f4 5a 9b 3f 89 e4 6b 40
       0.3232523 5.596848 1.2137132 3.6858237
000130 6f cf a8 3f d3 a8 76 40 06 89 7b 3c dc f1 b7 3f
       1.3188304 3.8540542 0.015352493 1.4370685
000140 39 0a 7e 3f 26 da 23 42 f1 b4 7a 40 7d 52 39 41
       0.9923435 40.963036 3.9172938 11.582639
000150 cb 2b 1b 40 26 ed 06 40 3c d4 04 40 f5 af 30 3f
       2.424548 2.1082244 2.0754538 0.6901849
000160 c3 fa 30 3d b9 a4 88 3f 48 75 c2 3e 82 0b 6c 3f
       0.043207895 1.0675269 0.37980103 0.9220506
000170 f9 8a 24 3e 85 ec 01 3f 20 80 98 3e ad d5 6c 3e
       0.16068639 0.50751525 0.29785252 0.23128386
000180 29 6c 9d 3f 6b 33 1e 41 22 0c 0c 40 b9 41 cc 40
       1.2298633 9.887553 2.1882405 6.383023
000190 bc a0 00 40 80 f7 0f 41 0d e3 a2 41 80 21 a5 41
       2.0098104 8.997925 20.360865 20.641357
0001a0 d5 19 5a 3e 0e 43 11 40 7a 07 85 3f 9e c6 0b 40
       0.21298917 2.2697177 1.0392907 2.1839976
0001b0 c4 91 0f 3f 6d 29 89 40 86 fa f2 3f 91 19 0a 40
       0.56081796 4.286307 1.8982704 2.1578104
0001c0 08 79 4e 3f 4b 18 52 41 bd 57 89 40 c1 4b 60 41
       0.8065343 13.130931 4.2919602 14.018495
0001d0 10 11 55 40 43 8d f9 40 86 0d 02 40 8e aa 81 3f
       3.3291664 7.798494 2.0320754 1.0130174
0001e0 ff 8c 74 3e 4c 21 10 40 a9 88 25 3f 56 ef b5 3f
       0.2388191 2.2520323 0.6466165 1.4213665
0001f0 2a 2c 01 3f e3 df ce 3f fe 76 a3 40 36 c7 9a 40
       0.50458014 1.6162075 5.1082754 4.8368177
000200 d3 a8 eb 3d 45 39 2d 3f a3 2b 66 3f 62 eb ca 3f
       0.1150681 0.6766551 0.89910334 1.5853083
000210 ac d6 9f 3e 22 bb 18 40 eb 7a 03 40 5c 22 03 40
       0.3121847 2.3864217 2.0543773 2.0489721
000220 2f c8 9c 3e 5c a5 9f 3f 52 7c f1 3f 08 43 92 40
       0.30621478 1.2472339 1.8866065 4.5706825
000230 4b 52 86 3f cd e3 7b 40 bd 1f af 40 0a 08 ab 40
       1.0493864 3.9357789 5.4726243 5.3447313
000240 f3 3d 49 3f 5a 68 7c 3f b4 18 d7 3f 0d 89 be 40
       0.7861015 0.9859673 1.6804414 5.95423
000250 be 4f 31 40 e3 33 c1 40 c9 d3 13 41 a5 a9 35 41
       2.770492 6.037584 9.239205 11.353917
000260 20 b1 9e 3d 55 25 cd 3e 5a 30 4b 3e ec fb 53 3f
       0.07748628 0.40067545 0.19842663 0.8280628
000270 87 4a 92 3e 9a 54 8c 3f 0b b4 e6 3d 71 e5 d5 3e
       0.28572485 1.0963318 0.11264809 0.41776612
000280 04 8f d1 3f 20 ba fd 3d 87 d5 79 3f e1 bc 95 40
       1.637177 0.12389016 0.9759144 4.6793065
000290 23 1a 36 40 dd 9b a4 41 1d 2d 87 40 db 17 c8 40
       2.8453453 20.576105 4.224257 6.252912
0002a0 52 34 7b 3e 63 31 ef 40 70 22 46 3f ff ef 0d 40
       0.24531677 7.4747787 0.773963 2.2177732
0002b0 2e a3 24 3f 1e 58 be 3e a2 60 e9 3f 28 4a e2 3f
       0.6431149 0.37176603 1.8232615 1.7678881
0002c0 64 0c 00 3f 11 a9 9f 40 1b cd 03 40 09 53 bd 40
       0.50018907 4.989388 2.0593936 5.916386
0002d0 bc 22 db 3f 02 7f 06 41 87 fc c7 40 e9 cf b6 40
       1.7119975 8.406008 6.249576 5.7128797
0002e0 65 d2 cd 40 eb 85 d5 42 77 a0 c8 41 21 f8 7b 42
       6.431933 106.76156 25.078352 62.992313
0002f0 f6 7c 74 41 d5 6d 36 42 f0 ea c2 42 78 75 c0 42
       15.280508 45.607258 97.45886 96.22943
000300 1f 90 04 3e 41 d5 c3 3f b3 df 29 3f 79 9a ab 3f
       0.12945603 1.5299455 0.6635696 1.3406516
000310 62 b7 b0 3e 2d 11 ac 3f 01 76 ba 3f 82 79 b2 3f
       0.3451491 1.3442742 1.4567262 1.3943331
000320 bd 41 81 3d 5a 97 f1 3f 77 b9 2a 3e 69 09 e2 3e
       0.06311367 1.8874314 0.16672312 0.44147804
000330 4a b0 e0 3d 9f 92 ed 3d ff 9c 7f 3d 2b 16 96 3d
       0.109711245 0.116002314 0.062405583 0.07328447
000340 56 f9 00 3f c6 1f 59 40 71 ff 82 3f 93 5b 3e 40
       0.50380456 3.3925643 1.0234205 2.9743392
000350 a3 37 99 3f 50 fb 33 40 25 68 03 41 ea c8 f2 40
       1.1970104 2.812214 8.212926 7.5870256
000360 fe cb 05 3f da ed 5b 3f 84 05 4e 40 d7 c2 00 41
       0.5226439 0.8590981 3.2190866 8.047568
000370 53 81 e9 3f 07 01 c1 40 8f 47 3c 41 e1 3e 38 41
       1.8242592 6.0313754 11.76747 11.515351
000380 5b e1 ee 3f d4 fc 98 40 9a 65 9a 40 38 6c 59 41
       1.8662523 4.780863 4.8249025 13.588921
000390 30 9a 89 40 cf a4 0e 41 e6 56 97 41 d1 d1 aa 41
       4.3000717 8.915236 18.91743 21.35245
0003a0 03 70 74 3f bf 03 48 40 09 2c ba 40 77 91 6c 41
       0.95483416 3.1252286 5.8178754 14.785514
0003b0 7f 70 57 40 56 a4 2b 41 e3 55 b9 41 d5 5e b8 41
       3.3662412 10.727621 23.166937 23.046305
0003c0 67 95 11 3f e6 c6 5b 40 71 63 0c 3f f6 d4 c1 3f
       0.56868595 3.4340148 0.54839236 1.5143116
0003d0 b0 0a 86 3f 1a 5a 66 41 86 2a 93 3f 61 95 61 40
       1.0472012 14.396997 1.1497352 3.5247424
0003e0 b5 d6 6d 3f 27 df b8 40 ec 58 3c 40 41 63 d6 40
       0.9290574 5.7772403 2.9429274 6.699616
0003f0 34 97 27 40 80 e0 04 41 af ee f7 40 d0 09 c1 40
       2.6186037 8.30481 7.747886 6.032448

exp_avg f4 [64]
000000 81 15 ae 3e f1 e4 92 bc c3 bb 1a 3f 03 4c 3f 3e
       0.3400078 -0.017931433 0.6044275 0.1868134
000010 d4 36 5b be be 01 98 3e 2a 97 13 be 43 ab ae be
       -0.21407634 0.2968883 -0.14413133 -0.34115037
000020 9f f2 66 3e f7 82 67 3e df f6 9e be 53 a6 3b be
       0.2255349 0.22608553 -0.31047723 -0.18325166
000030 7f 7b a6 3f 67 dc 25 3b 1e a9 14 bf 7f e6 15 3f
       1.3006438 0.0025308372 -0.5807055 0.58554834
000040 0f a7 d0 be c9 29 3b be 95 45 7d 3f 15 5d db 3d
       -0.40752456 -0.18277659 0.989343 0.10711113
000050 dc e5 73 3c c2 74 67 be 10 f0 17 3f cf 7e 59 40
       0.014886346 -0.22603133 0.5935068 3.3983648
000060 86 73 72 be fe d3 eb 3d 93 c3 a7 be f0 41 22 be
       -0.23676881 0.11515044 -0.327664 -0.15845466
000070 95 7b ab bf c1 6e 39 bf 16 cb 57 be a5 15 22 be
       -1.3397089 -0.7243462 -0.21073565 -0.15828569
000080 07 3b b7 bd e1 92 71 be aa 31 8b 3e dc 8b 1c be
       -0.089468054 -0.23591186 0.27186328 -0.15287727
000090 90 4e 4d bd 40 ce 48 3e 0c ff 91 3f 69 84 eb 3e
       -0.05012375 0.19609928 1.1405959 0.45999458
0000a0 db 6b 08 3e 6a a0 ca 3d 2e 2e 58 3e 2c 8c 4f 3f
       0.13322394 0.09893878 0.21111366 0.8107326
0000b0 b5 06 31 3a f3 81 5b 3e 65 ac 00 be 8d 6a 70 bf
       0.00067530136 0.2143629 -0.12565763 -0.93912584
0000c0 16 ad 17 be d5 3b 3f 3f cd c6 f1 be 04 00 00 00
       -0.14812121 0.7470067 -0.47221985 6e-45
0000d0 47 0e 62 be 55 cb c7 3e 4f 16 a7 3e 9b 30 2e 3e
       -0.22075759 0.39022318 0.32634208 0.17010729
0000e0 b6 cc ef be 2a e3 08 bf 5e 41 8d 3f 3b 8c 8f 3d
       -0.4683587 -0.53471625 1.1035573 0.07009169
0000f0 fd 86 1b bf db 25 4e bf 67 b9 b9 be aa 42 24 bf
       -0.6075285 -0.8052651 -0.36274263 -0.6416422

exp_avg_sq f4 [64]
000000 b4 66 7b 40 43 d2 81 3e 14 5e 7e 41 13 f6 20 41
       3.9281435 0.2535573 15.897968 10.060077
000010 b4 58 fd 41 f5 01 97 41 52 19 27 41 5b 0c d5 41
       31.668312 18.875956 10.443682 26.631033
000020 5b a0 ec 41 e7 e4 27 41 31 de 3d 42 b8 fa fc 3f
       29.578299 10.493384 47.466984 1.9764013
000030 87 24 31 42 60 11 a7 40 40 df f1 41 37 f6 2b 41
       44.28567 5.220871 30.234009 10.747611
000040 92 41 92 40 7b 0f 31 41 c6 db b8 41 47 49 fa 3f
       4.570504 11.066279 23.107311 1.9553612
000050 b2 5e 28 41 2c e9 38 41 93 f4 95 41 75 01 94 43
       10.523119 11.556927 18.744421 296.01138
000060 f2 6a 82 40 62 f0 19 40 df f8 54 41 51 a6 a4 41
       4.075555 2.4052968 13.31076 20.58121
000070 2b 45 4d 42 56 35 23 42 2d 43 cc 40 91 b6 92 41
       51.317547 40.802086 6.3832 18.339144
000080 cb 00 18 40 98 c6 37 41 6c f4 28 40 da 0a 1f 40
       2.3750484 11.485985 2.6399183 2.4850373
000090 73 35 8a 41 97 fa ff 40 73 57 11 43 14 5c 10 41
       17.276098 7.9993396 145.3416 9.02248
0000a0 e0 9b 7b 42 82 27 a3 40 29 75 9d 40 1a 8b 2a 42
       62.90222 5.0985727 4.920552 42.63584
0000b0 94 b1 84 3f 56 f6 ae 40 46 78 0f 40 7b 70 14 42
       1.0366693 5.4675703 2.241716 37.109844
0000c0 f0 6f 75 40 95 72 14 42 e5 58 b4 41 d6 0e c4 39
       3.8349571 37.111897 22.543406 0.00037395087
0000d0 d8 46 63 41 66 13 5f 40 e2 ed c0 40 38 5c b9 3f
       14.204796 3.485559 6.0290384 1.4481268
0000e0 7f a4 89 41 61 cc 87 41 e6 c3 fb 41 a6 96 04 40
       17.20532 16.974794 31.470654 2.0716949
0000f0 93 ed d5 41 be fa a4 41 4e bd 78 40 3b b7 2a 41
       26.741003 20.622433 3.8865542 10.669734

exp_avg f4 [64, 64]
000000 02 06 09 bb 1a 5e 06 3c e8 f2 70 3c 8a 10 2f 3b
       -0.0020908122 0.0082011465 0.014706351 0.002671274
000010 a5 71 f2 ba 87 a8 e1 bc a2 bc 03 bd 90 99 50 bb
       -0.0018497003 -0.02754618 -0.032162316 -0.0031829812
000020 a6 96 69 bb 33 75 14 3a 40 1c fb bb af 10 7a 3c
       -0.0035642772 0.0005663216 -0.00766328 0.015262767
000030 54 59 8b bb 96 88 bf bc cb ef 75 bb f4 d0 83 bb
       -0.004252592 -0.023380559 -0.003752696 -0.004022712
000040 36 27 c8 bb 4a e9 84 bc 96 4b a1 3a f5 18 38 3c
       -0.00610819 -0.016224522 0.0012305852 0.011236419
000050 8d f0 64 3a bf 82 1f bd 51 40 49 3c 46 fb 1a bd
       0.00087333546 -0.03894305 0.012283401 -0.03783729
000060 8c 96 ca bc 45 58 95 3b 1f e4 d4 bc 5f 07 b6 bc
       -0.02472999 0.0045576417 -0.025987683 -0.022220312
000070 7b 85 f3 bb 8a a6 a3 bc de b0 23 3b 8d 2a 81 bc
       -0.0074316836 -0.019976873 0.0024977247 -0.01576736
000080 03 5f e8 bc b4 c9 85 bc e7 82 b2 bc 8a c5 2f bc
       -0.028365618 -0.016331531 -0.021790935 -0.010728249
000090 ac 96 44 3c dd 69 22 bc 12 3a d5 3b 7b 36 5a bd
       0.011998814 -0.009912935 0.0065071667 -0.053274613
0000a0 4c 45 fb b9 e3 97 73 bc 05 f8 1d bd d7 f6 5f 3b
       -0.0004792608 -0.014867756 -0.038566608 0.0034174228
0000b0 0b 78 99 3c 66 0e b4 3a dd d3 29 bc b9 da a0 bc
       0.018733999 0.0013737201 -0.010365454 -0.019635545
0000c0 10 77 a1 bc e2 e6 ed bc f2 d5 73 bc 04 00 00 80
       -0.019710094 -0.029040758 -0.0148825515 -6e-45
0000d0 09 05 e0 3b 64 ca a2 3b 4a 80 86 bc b0 2d df bc
       0.0068365377 0.0049679745 -0.016418595 -0.027243465
0000e0 e3 22 b4 ba d2 77 90 bc 7b 4d a4 bc 6f f4 54 bc
       -0.0013743307 -0.01763526 -0.020056477 -0.012997731
0000f0 f6 91 34 bc 39 b0 6d bc 56 e0 08 bb c8 91 59 bc
       -0.011021128 -0.014507347 -0.0020885668 -0.013279386
000100 04 00 00 00 04 00 00 00 04 00 00 00 04 00 00 00
       6e-45 6e-45 6e-45 6e-45
000110 04 00 00 00 04 00 00 80 04 00 00 00 04 00 00 00
       6e-45 -6e-45 6e-45 6e-45
000120 04 00 00 00 04 00 00 00 04 00 00 00 04 00 00 00
       6e-45 6e-45 6e-45 6e-45
000130 04 00 00 00 04 00 00 80 04 00 00 00 04 00 00 00
       6e-45 -6e-45 6e-45 6e-45
000140 04 00 00 00 04 00 00 00 04 00 00 00 04 00 00 00
       6e-45 6e-45 6e-45 6e-45
000150 04 00 00 00 04 00 00 00 04 00 00 00 04 00 00 00
       6e-45 6e-45 6e-45 6e-45
000160 04 00 00 00 04 00 00 00 04 00 00 00 04 00 00 00
       6e-45 6e-45 6e-45 6e-45
000170 04 00 00 80 04 00 00 00 04 00 00 00 04 00 00 80
       -6e-45 6e-45 6e-45 -6e-45
000180 04 00 00 00 04 00 00 80 04 00 00 00 04 00 00 00
       6e-45 -6e-45 6e-45 6e-45
000190 04 00 00 00 04 00 00 00 04 00 00 80 04 00 00 00
       6e-45 6e-45 -6e-45 6e-45
0001a0 04 00 00 00 04 00 00 00 04 00 00 00 04 00 00 00
       6e-45 6e-45 6e-45 6e-45
0001b0 04 00 00 00 04 00 00 00 04 00 00 00 04 00 00 80
       6e-45 6e-45 6e-45 -6e-45
0001c0 04 00 00 00 04 00 00 00 04 00 00 00 04 00 00 80
       6e-45 6e-45 6e-45 -6e-45
0001d0 04 00 00 00 04 00 00 00 04 00 00 00 04 00 00 00
       6e-45 6e-45 6e-45 6e-45
0001e0 04 00 00 00 04 00 00 00 04 00 00 00 04 00 00 80
       6e-45 6e-45 6e-45 -6e-45
0001f0 04 00 00 00 04 00 00 80 04 00 00 80 04 00 00 00
       6e-45 -6e-45 -6e-45 6e-45
000200 6e 69 93 bb ce 45 75 30 52 be 8a bc 82 fc ab bc
       -0.004498652 8.922968e-10 -0.016936455 -0.020994429
000210 3e 84 b3 3b 04 00 00 00 79 e2 2f 3b 10 61 fb bc
       0.005478411 6e-45 0.002683787 -0.030685931
000220 ce f7 1a 3b be 18 5e bc a9 01 76 3b 8d 74 06 bb
       0.0023646238 -0.013555704 0.003753761 -0.0020516247
000230 09 48 70 bb f6 40 47 bc 2c 70 8f bc 79 6d cc bc
       -0.003666403 -0.012161484 -0.017509542 -0.024954544
000240 f7 df 47 bc bc 3a a1 3b 65 63 13 bc 6f 76 b5 bc
       -0.0121993935 0.0049203318 -0.0089958655 -0.0221512
000250 35 01 da 39 48 71 49 3b 0d 3c bb bc 89 1a 0c bc
       0.000415811 0.0030737687 -0.022855783 -0.008551248
000260 71 c5 97 bc 4b 0e 1b bb 70 8f 85 3b 0a d1 aa 3b
       -0.018526765 -0.0023659642 0.004075937 0.0052129077
000270 a5 92 a8 bc 09 23 bb 3b b9 ee 88 ba 11 f1 b4 3b
       -0.020577738 0.0057109636 -0.0010447121 0.0055219014
000280 e3 d3 56 bc bd 77 86 ba 98 6a ca bb 45 81 8e b9
       -0.013112041 -0.0010259073 -0.0061772577 -0.00027180664
000290 de 95 2a b8 95 20 24 39 d6 a3 9b bc 43 e1 1e 39
       -4.0670733e-05 0.00015652397 -0.018999022 0.00015151971
0002a0 b4 5d eb 3a 33 9d 04 bc 9f 38 3a bb fb ce fe bb
       0.0017957003 -0.00809412 -0.0028415096 -0.007776139
0002b0 2f 37 1f bd 0b 4d c3 bc 66 66 44 bb b9 74 ce bb
       -0.038870987 -0.023840448 -0.002996826 -0.0063005355
0002c0 9e d4 0c b9 e3 3d 8a bb 4c 26 a6 bc 04 00 00 80
       -0.00013430647 -0.0042188033 -0.020281933 -6e-45
0002d0 83 22 c3 ba b3 99 d9 bc 0c b3 a2 3a 55 30 f7 bb
       -0.0014887605 -0.026562547 0.0012412979 -0.0075436034
0002e0 63 79 a3 bc 34 11 88 bb dc 17 df bc 6e da 48 3b
       -0.019955343 -0.0041524414 -0.027233057 0.0030647772
0002f0 fd dd f9 3a 21 bf 19 3c f8 ef 05 bc a6 d3 77 bb
       0.001906335 0.009383948 -0.008174889 -0.0037815361
000300 04 00 00 80 eb 6c 96 bb d3 ea ee bb 3d 5b c7 bb
       -6e-45 -0.0045906208 -0.007291177 -0.0060838745
000310 b6 89 0c 38 40 e5 0a bc 99 be d6 b9 4e c5 61 39
       3.3506854e-05 -0.008477509 -0.00040959267 0.00021531174
000320 04 00 00 00 a6 07 04 bc c7 fe e5 bb af 57 46 bb
       6e-45 -0.008058464 -0.007018897 -0.0030264666
000330 60 a0 98 bb 96 1f 23 bb a0 1d 07 b5 61 ca d0 bb
       -0.00465779 -0.0024890653 -5.033453e-07 -0.0063717817
000340 bc 2e 7a 3a 75 0d a9 39 0d ea 91 3a 8f 31 e8 bb
       0.0009543707 0.00032244218 0.0011132375 -0.007085986
000350 04 00 00 80 a4 c9 28 bc 65 6f e1 bb 89 6a ce bb
       -6e-45 -0.010301981 -0.0068797343 -0.006299321
000360 84 cf 68 bb 0e 7c 88 ba a7 79 82 ba bc 03 45 8d
       -0.003552408 -0.0010412948 -0.0009954468 -6.0709807e-31
000370 74 e6 bd 8f 46 ff ea 8e 2a d0 d2 1b ff 50 35 bb
       -1.8725606e-29 -5.7931273e-30 3.4876109e-22 -0.0027666686
000380 49 5c 94 bb 33 7a ae 39 6f 1f 2a bc bd a4 0a bc
       -0.004527603 0.00033278912 -0.010383471 -0.008462128
000390 6d f5 11 1b a4 e3 32 ba ce 76 df 39 f9 5e 27 bc
       1.207342e-22 -0.0006824082 0.0004262239 -0.010215514
0003a0 f2 9f 8c ba 85 17 1c 0b 87 f9 e7 bb e7 43 07 3a
       -0.001072882 3.00622e-32 -0.0070793065 0.00051599595
0003b0 40 e5 88 bb b5 9b 32 bb d0 5e 3c bb f9 a4 37 bb
       -0.0041777194 -0.0027253453 -0.0028743036 -0.0028021915
0003c0 68 9e 85 bb fc a1 d9 bb bf 4b a7 b9 04 00 00 80
       -0.0040777214 -0.0066416245 -0.00031909157 -6e-45
0003d0 ef 3f 07 1c 5a 72 a1 3a 68 f2 f2 ba 91 8c 6a bb
       4.4750385e-22 0.0012317405 -0.0018535377 -0.003578935
0003e0 4d c3 c6 a5 67 19 5f 1b 5e 7f 00 bb 55 78 cf ba
       -3.4479866e-16 1.8454336e-22 -0.0019607167 -0.0015828708
0003f0 8e 7f 39 bb 44 ef 98 bb 15 00 00 00 09 3a 64 ba
       -0.0028304788 -0.0046671946 3e-44 -0.00087061577
